2026-06-27 11:18:36,029 - INFO: 正在创建模型：PhonePriceModel(
  (linear1): Linear(in_features=20, out_features=128, bias=True)
  (linear2): Linear(in_features=128, out_features=256, bias=True)
  (linear3): Linear(in_features=256, out_features=512, bias=True)
  (linear4): Linear(in_features=512, out_features=128, bias=True)
  (output): Linear(in_features=256, out_features=4, bias=True)
)
2026-06-27 11:20:54,868 - INFO: 正在创建模型：PhonePriceModel(
  (linear1): Linear(in_features=20, out_features=128, bias=True)
  (linear2): Linear(in_features=128, out_features=256, bias=True)
  (linear3): Linear(in_features=256, out_features=512, bias=True)
  (linear4): Linear(in_features=512, out_features=128, bias=True)
  (output): Linear(in_features=128, out_features=4, bias=True)
)
2026-06-27 11:20:54,886 - INFO: 开始模型训练
2026-06-27 11:20:56,681 - INFO: epoch:1,loss:1.3463,time:0.21762681007385254s
2026-06-27 11:20:56,855 - INFO: epoch:2,loss:0.9386,time:0.17348837852478027s
2026-06-27 11:20:57,039 - INFO: epoch:3,loss:0.5027,time:0.18311095237731934s
2026-06-27 11:20:57,199 - INFO: epoch:4,loss:0.3484,time:0.1602153778076172s
2026-06-27 11:20:57,419 - INFO: epoch:5,loss:0.2775,time:0.21968579292297363s
…
